…
num_reg_epochs=81, no_reg_dec=False, manual_init=True, init_method='ibp', kaiming_init=False, no_init=False, length=None, lip=False, global_lip=False)
INFO     2023-05-22 07:00:43,439 Loading config file: config/cifar.json
INFO     2023-05-22 07:00:43,439 config: {"data": "CIFAR", "seed": 100, "training_params": {"method": "robust", "batch_size": 128}, "bound_params": {"eps": 0.03137, "bound_opts": {"relu": "adaptive", "exp": "clamp_constant"}}, "batch_size": 128}
INFO     2023-05-22 07:00:43,450 Model structure: 
 CIFARResNet(
  (features): Sequential(
    (init_block): ConvBlock(
      (conv): Conv2d(3, 16, kernel_size=(3, 3), stride=(1, 1), padding=(1, 1), bias=False)
      (bn): BatchNorm2d(16, eps=1e-05, momentum=0.1, affine=True, track_running_stats=True)
      (activ): ReLU(inplace=True)
    )
    (stage1): Sequential(
      (unit1): ResUnit(
        (body): ResBlock(
          (conv1): ConvBlock(
            (conv): Conv2d(16, 16, kernel_size=(3, 3), stride=(1, 1), padding=(1, 1), bias=False)
            (bn): BatchNorm2d(16, eps=1e-05, momentum=0.1, affine=True, track_running_stats=True)
            (activ): ReLU(inplace=True)
          )
          (conv2): ConvBlock(
            (conv): Conv2d(16, 16, kernel_size=(3, 3), stride=(1, 1), padding=(1, 1), bias=False)
            (bn): BatchNorm2d(16, eps=1e-05, momentum=0.1, affine=True, track_running_stats=True)
          )
        )
        (activ): ReLU(inplace=True)
      )
      (unit2): ResUnit(
        (body): ResBlock(
          (conv1): ConvBlock(
            (conv): Conv2d(16, 16, kernel_size=(3, 3), stride=(1, 1), padding=(1, 1), bias=False)
            (bn): BatchNorm2d(16, eps=1e-05, momentum=0.1, affine=True, track_running_stats=True)
            (activ): ReLU(inplace=True)
          )
          (conv2): ConvBlock(
            (conv): Conv2d(16, 16, kernel_size=(3, 3), stride=(1, 1), padding=(1, 1), bias=False)
            (bn): BatchNorm2d(16, eps=1e-05, momentum=0.1, affine=True, track_running_stats=True)
          )
        )
        (activ): ReLU(inplace=True)
      )
      (unit3): ResUnit(
        (body): ResBlock(
          (conv1): ConvBlock(
            (conv): Conv2d(16, 16, kernel_size=(3, 3), stride=(1, 1), padding=(1, 1), bias=False)
            (bn): BatchNorm2d(16, eps=1e-05, momentum=0.1, affine=True, track_running_stats=True)
            (activ): ReLU(inplace=True)
          )
          (conv2): ConvBlock(
            (conv): Conv2d(16, 16, kernel_size=(3, 3), stride=(1, 1), padding=(1, 1), bias=False)
            (bn): BatchNorm2d(16, eps=1e-05, momentum=0.1, affine=True, track_running_stats=True)
          )
        )
        (activ): ReLU(inplace=True)
      )
    )
    (stage2): Sequential(
      (unit1): ResUnit(
        (body): ResBlock(
          (conv1): ConvBlock(
            (conv): Conv2d(16, 32, kernel_size=(3, 3), stride=(2, 2), padding=(1, 1), bias=False)
            (bn): BatchNorm2d(32, eps=1e-05, momentum=0.1, affine=True, track_running_stats=True)
            (activ): ReLU(inplace=True)
          )
          (conv2): ConvBlock(
            (conv): Conv2d(32, 32, kernel_size=(3, 3), stride=(1, 1), padding=(1, 1), bias=False)
            (bn): BatchNorm2d(32, eps=1e-05, momentum=0.1, affine=True, track_running_stats=True)
          )
        )
        (identity_conv): ConvBlock(
          (conv): Conv2d(16, 32, kernel_size=(1, 1), stride=(2, 2), bias=False)
          (bn): BatchNorm2d(32, eps=1e-05, momentum=0.1, affine=True, track_running_stats=True)
        )
        (activ): ReLU(inplace=True)
      )
      (unit2): ResUnit(
        (body): ResBlock(
          (conv1): ConvBlock(
            (conv): Conv2d(32, 32, kernel_size=(3, 3), stride=(1, 1), padding=(1, 1), bias=False)
            (bn): BatchNorm2d(32, eps=1e-05, momentum=0.1, affine=True, track_running_stats=True)
            (activ): ReLU(inplace=True)
          )
          (conv2): ConvBlock(
            (conv): Conv2d(32, 32, kernel_size=(3, 3), stride=(1, 1), padding=(1, 1), bias=False)
            (bn): BatchNorm2d(32, eps=1e-05, momentum=0.1, affine=True, track_running_stats=True)
          )
        )
        (activ): ReLU(inplace=True)
      )
      (unit3): ResUnit(
        (body): ResBlock(
          (conv1): ConvBlock(
            (conv): Conv2d(32, 32, kernel_size=(3, 3), stride=(1, 1), padding=(1, 1), bias=False)
            (bn): BatchNorm2d(32, eps=1e-05, momentum=0.1, affine=True, track_running_stats=True)
            (activ): ReLU(inplace=True)
          )
          (conv2): ConvBlock(
            (conv): Conv2d(32, 32, kernel_size=(3, 3), stride=(1, 1), padding=(1, 1), bias=False)
            (bn): BatchNorm2d(32, eps=1e-05, momentum=0.1, affine=True, track_running_stats=True)
          )
        )
        (activ): ReLU(inplace=True)
      )
    )
    (stage3): Sequential(
      (unit1): ResUnit(
        (body): ResBlock(
          (conv1): ConvBlock(
            (conv): Conv2d(32, 64, kernel_size=(3, 3), stride=(2, 2), padding=(1, 1), bias=False)
            (bn): BatchNorm2d(64, eps=1e-05, momentum=0.1, affine=True, track_running_stats=True)
            (activ): ReLU(inplace=True)
          )
          (conv2): ConvBlock(
            (conv): Conv2d(64, 64, kernel_size=(3, 3), stride=(1, 1), padding=(1, 1), bias=False)
            (bn): BatchNorm2d(64, eps=1e-05, momentum=0.1, affine=True, track_running_stats=True)
          )
        )
        (identity_conv): ConvBlock(
          (conv): Conv2d(32, 64, kernel_size=(1, 1), stride=(2, 2), bias=False)
          (bn): BatchNorm2d(64, eps=1e-05, momentum=0.1, affine=True, track_running_stats=True)
        )
        (activ): ReLU(inplace=True)
      )
      (unit2): ResUnit(
        (body): ResBlock(
          (conv1): ConvBlock(
            (conv): Conv2d(64, 64, kernel_size=(3, 3), stride=(1, 1), padding=(1, 1), bias=False)
            (bn): BatchNorm2d(64, eps=1e-05, momentum=0.1, affine=True, track_running_stats=True)
            (activ): ReLU(inplace=True)
          )
          (conv2): ConvBlock(
            (conv): Conv2d(64, 64, kernel_size=(3, 3), stride=(1, 1), padding=(1, 1), bias=False)
            (bn): BatchNorm2d(64, eps=1e-05, momentum=0.1, affine=True, track_running_stats=True)
          )
        )
        (activ): ReLU(inplace=True)
      )
      (unit3): ResUnit(
        (body): ResBlock(
          (conv1): ConvBlock(
            (conv): Conv2d(64, 64, kernel_size=(3, 3), stride=(1, 1), padding=(1, 1), bias=False)
            (bn): BatchNorm2d(64, eps=1e-05, momentum=0.1, affine=True, track_running_stats=True)
            (activ): ReLU(inplace=True)
          )
          (conv2): ConvBlock(
            (conv): Conv2d(64, 64, kernel_size=(3, 3), stride=(1, 1), padding=(1, 1), bias=False)
            (bn): BatchNorm2d(64, eps=1e-05, momentum=0.1, affine=True, track_running_stats=True)
          )
        )
        (activ): ReLU(inplace=True)
      )
    )
    (final_pool): AvgPool2d(kernel_size=8, stride=1, padding=0)
  )
  (output): Linear(in_features=64, out_features=10, bias=True)
)
INFO     2023-05-22 07:01:17,342 Parameter shapes: [torch.Size([16, 3, 3, 3]), torch.Size([16]), torch.Size([16]), torch.Size([16, 16, 3, 3]), torch.Size([16]), torch.Size([16]), torch.Size([16, 16, 3, 3]), torch.Size([16]), torch.Size([16]), torch.Size([16, 16, 3, 3]), torch.Size([16]), torch.Size([16]), torch.Size([16, 16, 3, 3]), torch.Size([16]), t
…
